…
    "                                        subset='validation',shuffle=False)"
   ]
  },
  {
   "cell_type": "markdown",
   "metadata": {},
   "source": [
    "# Defining the Model"
   ]
  },
  {
   "cell_type": "code",
   "execution_count": 8,
   "metadata": {},
   "outputs": [
    {
     "name": "stdout",
     "output_type": "stream",
     "text": [
      "Model: \"sequential\"\n",
      "_________________________________________________________________\n",
      " Layer (type)                Output Shape              Param #   \n",
      "=================================================================\n",
      " conv2d (Conv2D)             (None, 224, 224, 64)      832       \n",
      "                                                                 \n",
      " max_pooling2d (MaxPooling2D  (None, 112, 112, 64)     0         \n",
      " )                                                               \n",
      "                                                                 \n",
      " conv2d_1 (Conv2D)           (None, 112, 112, 128)     32896     \n",
      "                                                                 \n",
      " max_pooling2d_1 (MaxPooling  (None, 56, 56, 128)      0         \n",
      " 2D)                                                             \n",
      "                                                                 \n",
      " conv2d_2 (Conv2D)           (None, 56, 56, 256)       131328    \n",
      "                                                                 \n",
      " max_pooling2d_2 (MaxPooling  (None, 28, 28, 256)      0         \n",
      " 2D)                                                             \n",
      "                                                                 \n",
      " conv2d_3 (Conv2D)           (None, 28, 28, 512)       524800    \n",
      "                                                                 \n",
      " max_pooling2d_3 (MaxPooling  (None, 14, 14, 512)      0         \n",
      " 2D)                                                             \n",
      "                                                                 \n",
      " dropout (Dropout)           (None, 14, 14, 512)       0         \n",
      "                                                                 \n",
      " flatten (Flatten)           (None, 100352)            0         \n",
      "                                                                 \n",
      " dense (Dense)               (None, 500)               50176500  \n",
      "                                                                 \n",
      " dropout_1 (Dropout)         (None, 500)               0         \n",
      "                                                                 \n",
      " dense_1 (Dense)             (None, 10)                5010      \n",
      "                                                                 \n",
      "=================================================================\n",
      "Total params: 50,871,366\n",
      "Trainable params: 50,871,366\n",
      "Non-trainable params: 0\n",
      "_________________________________________________________________\n"
     ]
    }
   ],
   "source": [
    "model = Sequential()\n",
…
